{"modelTopology":{"class_name":"Sequential","config":{"name":"sequential_1195","layers":[{"class_name":"Dense","config":{"units":15,"activation":"relu6","use_bias":true,"kernel_initializer":{"class_name":"VarianceScaling","config":{"scale":1,"mode":"fan_avg","distribution":"normal","seed":null}},"bias_initializer":{"class_name":"Zeros","config":{}},"kernel_regularizer":null,"bias_regularizer":null,"activity_regularizer":null,"kernel_constraint":null,"bias_constraint":null,"name":"dense_Dense5971","trainable":true,"batch_input_shape":[null,16200],"dtype":"float32"}},{"class_name":"Dense","config":{"units":15,"activation":"relu6","use_bias":true,"kernel_initializer":{"class_name":"VarianceScaling","config":{"scale":1,"mode":"fan_avg","distribution":"normal","seed":null}},"bias_initializer":{"class_name":"Zeros","config":{}},"kernel_regularizer":null,"bias_regularizer":null,"activity_regularizer":null,"kernel_constraint":null,"bias_constraint":null,"name":"dense_Dense5972","trainable":true,"batch_input_shape":[null,15],"dtype":"float32"}},{"class_name":"Dense","config":{"units":15,"activation":"relu6","use_bias":true,"kernel_initializer":{"class_name":"VarianceScaling","config":{"scale":1,"mode":"fan_avg","distribution":"normal","seed":null}},"bias_initializer":{"class_name":"Zeros","config":{}},"kernel_regularizer":null,"bias_regularizer":null,"activity_regularizer":null,"kernel_constraint":null,"bias_constraint":null,"name":"dense_Dense5973","trainable":true,"batch_input_shape":[null,15],"dtype":"float32"}},{"class_name":"Dense","config":{"units":15,"activation":"relu6","use_bias":true,"kernel_initializer":{"class_name":"VarianceScaling","config":{"scale":1,"mode":"fan_avg","distribution":"normal","seed":null}},"bias_initializer":{"class_name":"Zeros","config":{}},"kernel_regularizer":null,"bias_regularizer":null,"activity_regularizer":null,"kernel_constraint":null,"bias_constraint":null,"name":"dense_Dense5974","trainable":true,"batch_input_shape":[null,15],"dtype":"float32"}},{"class_name":"Dense","config":{"units":6,"activation":"sigmoid","use_bias":true,"kernel_initializer":{"class_name":"VarianceScaling","config":{"scale":1,"mode":"fan_avg","distribution":"normal","seed":null}},"bias_initializer":{"class_name":"Zeros","config":{}},"kernel_regularizer":null,"bias_regularizer":null,"activity_regularizer":null,"kernel_constraint":null,"bias_constraint":null,"name":"dense_Dense5975","trainable":true,"batch_input_shape":[null,15],"dtype":"float32"}}]},"keras_version":"tfjs-layers 3.12.0","backend":"tensor_flow.js"},"weightsManifest":[{"paths":["weights.bin"],"weights":[{"name":"dense_Dense5971/kernel","shape":[16200,15],"dtype":"float32"},{"name":"dense_Dense5971/bias","shape":[15],"dtype":"float32"},{"name":"dense_Dense5972/kernel","shape":[15,15],"dtype":"float32"},{"name":"dense_Dense5972/bias","shape":[15],"dtype":"float32"},{"name":"dense_Dense5973/kernel","shape":[15,15],"dtype":"float32"},{"name":"dense_Dense5973/bias","shape":[15],"dtype":"float32"},{"name":"dense_Dense5974/kernel","shape":[15,15],"dtype":"float32"},{"name":"dense_Dense5974/bias","shape":[15],"dtype":"float32"},{"name":"dense_Dense5975/kernel","shape":[15,6],"dtype":"float32"},{"name":"dense_Dense5975/bias","shape":[6],"dtype":"float32"}]}],"format":"layers-model","generatedBy":"TensorFlow.js tfjs-layers v3.12.0","convertedBy":null}